…
ase_uri":"https://localhost:8080/"},"executionInfo":{"elapsed":13,"status":"ok","timestamp":1692505381322,"user":{"displayName":"TARUN JAGADISH 20BCE1772","userId":"07133367867851658603"},"user_tz":-330},"id":"Awq-ZJzyH7s-","outputId":"d14c511e-c787-404a-f1a0-f03cfefef9a3"},"outputs":[{"name":"stdout","output_type":"stream","text":["Model: \"sequential\"\n","_________________________________________________________________\n"," Layer (type)                Output Shape              Param #   \n","=================================================================\n"," conv2d (Conv2D)             (None, 222, 222, 32)      896       \n","                                                                 \n"," activation (Activation)     (None, 222, 222, 32)      0         \n","                                                                 \n"," max_pooling2d (MaxPooling2D  (None, 111, 111, 32)     0         \n"," )                                                               \n","                                                                 \n"," conv2d_1 (Conv2D)           (None, 109, 109, 64)      18496     \n","                                                                 \n"," activation_1 (Activation)   (None, 109, 109, 64)      0         \n","                                                                 \n"," max_pooling2d_1 (MaxPooling  (None, 54, 54, 64)       0         \n"," 2D)                                                             \n","                                                                 \n"," conv2d_2 (Conv2D)           (None, 52, 52, 128)       73856     \n","                                                                 \n"," activation_2 (Activation)   (None, 52, 52, 128)       0         \n","                                                                 \n"," max_pooling2d_2 (MaxPooling  (None, 26, 26, 128)      0         \n"," 2D)                                                             \n","                                                                 \n"," conv2d_3 (Conv2D)           (None, 24, 24, 64)        73792     \n","                                                                 \n"," activation_3 (Activation)   (None, 24, 24, 64)        0         \n","                                                                 \n"," max_pooling2d_3 (MaxPooling  (None, 12, 12, 64)       0         \n"," 2D)                                                             \n","                                                                 \n"," flatten (Flatten)           (None, 9216)              0         \n","                                                                 \n"," dense (Dense)               (None, 256)               2359552   \n","                                                                 \n"," activation_4 (Activation)   (None, 256)               0         \n","                                                                 \n"," dropout (Dropout)           (None, 256)               0         \n","                                                                 \n"," dense_1 (Dense)             (None, 64)                16448     \n","                                                                 \n"," activation_5 (Activation)   (None, 64)                0         \n","                                                                 \n"," dropout_1 (Dropout)         (None, 64)                0         \n","                                                                 \n"," dense_2 (Dense)             (None, 2)                 130       \n","                                                                 \n"," activation_6 (Activation)   (None, 2)                 0         \n","                                                                 \n","=================================================================\n","Total params: 2,543,170\n","Trainable params: 2,543,170\n","Non-trainable params: 0\n","_________________________________________________________________\n"]}],"source":["model.summary()"]},{"cell_type":"code","execution_count":null,"metadata":{"
…
